labs/embeddings/layer.npy (npy, 12416 bytes, 1 tensors)

array f8 [1536]
00000000: 0000 0040 c977 41bf 0000 00a0 d512 61bf
00000010: 0000 0040 8d67 66bf 0000 00e0 4e70 91bf
00000020: 0000 00c0 2300 813f 0000 0060 d16a 923f
00000030: 0000 0080 51b4 87bf 0000 0080 ceff 9dbf
00000040: 0000 0040 396e 8fbf 0000 0040 6aea 76bf
00000050: 0000 0020 7c34 913f 0000 00e0 7043 913f
00000060: 0000 0080 af97 923f 0000 00e0 5365 833f
00000070: 0000 00a0 f3d0 9cbf 0000 0040 ee7e 5e3f
00000080: 0000 0060 a884 9f3f 0000 0020 af3a 963f
00000090: 0000 0040 0ab3 9c3f 0000 0060 b238 95bf
000000a0: 0000 00c0 4268 9cbf 0000 0060 6de8 85bf
000000b0: 0000 00a0 525e 87bf 0000 00e0 585a 95bf
000000c0: 0000 00c0 3d73 9abf 0000 0080 a198 5abf
000000d0: 0000 0040 6940 773f 0000 0020 8574 95bf
000000e0: 0000 0040 8e11 863f 0000 0020 cdc2 83bf
000000f0: 0000 0060 6254 823f 0000 00a0 8979 90bf
00000100: 0000 00c0 4b72 a2bf 0000 0020 62f7 85bf
00000110: 0000 0000 0116 8cbf 0000 00a0 6886 8ebf
00000120: 0000 00e0 a83e 98bf 0000 0060 dcfe 85bf
00000130: 0000 0080 699d 83bf 0000 00a0 4e13 653f
00000140: 0000 00c0 dee5 9f3f 0000 00a0 8a59 5ebf
00000150: 0000 0020 7280 3bbf 0000 00a0 362a 693f
00000160: 0000 0060 d0c0 92bf 0000 00c0 ffd8 713f
00000170: 0000 0020 9fe7 9ebf 0000 0080 88cf 70bf
00000180: 0000 0000 7fd5 a3bf 0000 0060 be76 683f
00000190: 0000 0080 500a 983f 0000 00e0 c1d1 933f
000001a0: 0000 0080 e792 89bf 0000 0020 cdc2 93bf
000001b0: 0000 0020 c30e 5ebf 0000 0000 2d9d 91bf
000001c0: 0000 0040 7089 883f 0000 00c0 af2a 8d3f
000001d0: 0000 0080 6552 913f 0000 00a0 1203 aabf
000001e0: 0000 0060 ad43 83bf 0000 0000 ac3c 77bf
000001f0: 0000 0060 5cb5 703f 0000 0020 ff1e 993f
00000200: 0000 0040 bfc3 7bbf 0000 0020 7775 8d3f
00000210: 0000 0000 7fd5 83bf 0000 0080 500a 883f
00000220: 0000 0040 925c 883f 0000 00c0 ffd8 81bf
00000230: 0000 00c0 46b3 9e3f 0000 00e0 e039 8f3f
00000240: 0000 0000 0116 7c3f 0000 0060 f4e7 81bf
00000250: 0000 00c0 c8bd 68bf 0000 0080 ec87 9bbf
00000260: 0000 00e0 02d7 60bf 0000 0080 97ae 66bf
00000270: 0000 0000 fc20 6a3f 0000 0000 f18c 56bf
00000280: 0000 0040 4d0c 893f 0000 0020 18b2 94bf
00000290: 0000 00e0 2634 6ebf 0000 0020 b87a 9a3f
000002a0: 0000 0080 c415 aa3f 0000 0060 3523 9d3f
000002b0: 0000 00a0 3f6a 7d3f 0000 00c0 6f99 913f
000002c0: 0000 0060 3e2d 63bf 0000 0020 7775 9dbf
000002d0: 0000 00e0 c027 943f 0000 0020 e401 a03f
000002e0: 0000 00c0 5067 943f 0000 0080 01d0 943f
000002f0: 0000 00c0 73e4 93bf 0000 00a0 d79c 7e3f
00000300: 0000 0000 7fd5 43bf 0000 0020 a4a6 a23f
00000310: 0000 00c0 4268 7cbf 0000 0060 86b1 9fbf
00000320: 0000 0020 ff1e 79bf 0000 00a0 cc08 7bbf
00000330: 0000 0040 0f72 90bf 0000 0040 a105 90bf
00000340: 0000 00a0 076f a6bf 0000 0060 0e5b 9bbf
00000350: 0000 0080 9ca3 883f 0000 0080 f63b 813f
00000360: 0000 0040 7f68 9e3f 0000 0060 0966 59bf
00000370: 0000 0020 ef95 83bf 0000 0060 22f9 a43f
00000380: 0000 0080 88cf 803f 0000 00c0 0b17 a5bf
00000390: 0000 0000 4710 7bbf 0000 0020 d2b7 753f
000003a0: 0000 0040 6940 873f 0000 0080 97ae 66bf
000003b0: 0000 00c0 00b9 8f3f 0000 0020 9fb1 90bf
000003c0: 0000 00c0 916c 913f 0000 00a0 ef85 8a3f
000003d0: 0000 00c0 a540 893f 0000 0020 c679 82bf
000003e0: 0000 00e0 fec1 8c3f 0000 0080 19b9 90bf
000003f0: 0000 00e0 7043 61bf 0000 0000 60a3 86bf
00000400: 0000 0000 2ff1 803f 0000 00e0 995f 923f
00000410: 0000 00e0 c1d1 a33f 0000 0060 58a0 3c3f
00000420: 0000 0020 4a0e 8a3f 0000 0020 95fd 4abf
00000430: 0000 0040 5157 4bbf 0000 0080 23a3 943f
00000440: 0000 0000 7e2b 84bf 0000 0020 f03f 533f
00000450: 0000 00c0 e2fa 63bf 0000 0080 1eae a2bf
00000460: 0000 00a0 26a1 833f 0000 0020 b2db 38bf
00000470: 0000 0060 e53e 9abf 0000 0060 4f60 98bf
00000480: 0000 0060 49c1 86bf 0000 0020 63a1 953f
00000490: 0000 0020 5eac 83bf 0000 0060 6de8 853f
000004a0: 0000 0020 3f7a 66bf 0000 00c0 cdb2 6a3f
000004b0: 0000 00e0 668f 4bbf 0000 0000 2e7d 8fbf
000004c0: 0000 00a0 54b2 963f 0000 00e0 c6c6 95bf
000004d0: 0000 0080 3282 8abf 0000 00a0 95b7 a33f
000004e0: 0000 00a0 6d45 823f 0000 00e0 bcdc 713f
000004f0: 0000 0080 d214 82bf 0000 0020 59b7 913f
00000500: 0000 0080 b536 843f 0000 00e0 e003 813f
00000510: 0000 00e0 4071 993f 0000 0060 2644 873f
00000520: 0000 0020 d2b7 953f 0000 0040 837d a23f
00000530: 0000 0020 f534 75bf 0000 00a0 bd29 653f
00000540: 0000 0080 fb30 733f 0000 0060 3e2d 733f
00000550: 0000 00c0 abdf 8a3f 0000 00c0 0b17 75bf
00000560: 0000 00a0 bc7f 85bf 0000 00a0 0819 863f
00000570: 0000 00c0 2300 61bf 0000 00c0 32df 863f
00000580: 0000 0040 3479 7dbf 0000 0040 8d67 86bf
00000590: 0000 0000 ba71 9dbf 0000 00a0 d548 9fbf
000005a0: 0000 0060 27ee 96bf 0000 00e0 0cc1 74bf
000005b0: 0000 00a0 90c2 a13f 0000 0060 9065 a53f
000005c0: 0000 0060 c2c1 9abf 0000 00a0 6d45 82bf
000005d0: 0000 0080 10af 7a3f 0000 0060 0db1 8b3f
000005e0: 0000 00c0 5067 543f 0000 0020 18b2 94bf
000005f0: 0000 0080 7387 57bf 0000 00e0 2554 a03f
00000600: 0000 0080 ceff 8d3f 0000 0080 e83c 89bf
00000610: 0000 0080 910f e5bf 0000 00e0 ee38 97bf
00000620: 0000 00a0 8979 10bf 0000 0000 1aa9 47bf
00000630: 0000 0080 6e92 853f 0000 0000 9d5d 613f
00000640: 0000 00a0 70e6 943f 0000 0060 4081 723f
00000650: 0000 00e0 7123 8fbf 0000 00a0 d053 3d3f
00000660: 0000 0040 abef 63bf 0000 0000 d4ae 58bf
00000670: 0000 0020 dca1 89bf 0000 0020 55a2 5dbf
00000680: 0000 0020 d063 86bf 0000 00a0 2b96 85bf
00000690: 0000 0080 88cf 70bf 0000 0020 c30e 6ebf
000006a0: 0000 00e0 52bb 733f 0000 0060 d16a 923f
000006b0: 0000 00a0 d79c 8ebf 0000 00c0 5111 943f
000006c0: 0000 0040 4bb8 693f 0000 0020 cc18 843f
000006d0: 0000 0080 9363 443f 0000 0020 c184 a03f
000006e0: 0000 00e0 0381 903f 0000 00c0 748e 93bf
000006f0: 0000 0060 72dd 67bf 0000 0040 8d67 863f
00000700: 0000 0080 a737 9cbf 0000 0080 bf20 78bf
00000710: 0000 0060 f5c7 7fbf 0000 0040 0173 68bf
00000720: 0000 0040 ec2a 9f3f 0000 0000 9d5d 713f
00000730: 0000 0000 7477 9ebf 0000 0020 e9f6 913f
00000740: 0000 00a0 66fc 703f 0000 00a0 6886 ae3f
00000750: 0000 00e0 f9cc 7abf 0000 0000 bcc5 7cbf
00000760: 0000 00a0 67a6 a03f 0000 00e0 93c0 903f
00000770: 0000 00e0 e5f8 82bf 0000 0080 ba2b 963f
00000780: 0000 0040 46c3 973f 0000 0040 ac99 933f
00000790: 0000 0020 f03f 833f 0000 00c0 ffd8 81bf
000007a0: 0000 0080 051b 873f 0000 0040 5201 9bbf
000007b0: 0000 0040 79c9 8cbf 0000 00e0 d5a5 9b3f
000007c0: 0000 00c0 5606 963f 0000 0040 0f72 90bf
000007d0: 0000 0000 f8d5 873f 0000 0000 3787 853f
000007e0: 0000 00a0 da07 733f 0000 00e0 d64f 7bbf
000007f0: 0000 0080 19b9 803f 0000 0060 85d1 61bf
-0.0005330784479156137 -0.0020841762889176607 -0.0027349242009222507 -0.017029983922839165 0.00830104760825634 0.017985602840781212 -0.0115743987262249 -0.029296137392520905
-0.015346953645348549 -0.005594649352133274 0.016801776364445686 0.01685882918536663 0.018156759440898895 0.00947061087936163 -0.02814083732664585 0.001861317316070199
0.030779486522078514 0.021708237007260323 0.028026733547449112 -0.020724093541502953 -0.02774147316813469 -0.010697226040065289 -0.011410375125706196 -0.020852459594607353
-0.025830235332250595 -0.001623304095119238 0.005676661618053913 -0.02095230109989643 0.010775672271847725 -0.009648897685110569 0.008950012736022472 -0.01608862914144993
-0.03602825850248337 -0.01072575245052576 -0.013713844120502472 -0.014904801733791828 -0.02367652766406536 -0.010740014724433422 -0.009577583521604538 0.0025726829189807177
0.031150322407484055 -0.0018524030456319451 -0.000419643271015957 0.003071886720135808 -0.018313651904463768 0.004357337020337582 -0.030180441215634346 -0.004104169085621834
-0.03873822093009949 0.0029863088857382536 0.023476846516132355 0.019354848191142082 -0.012487228959798813 -0.019297795370221138 -0.0018345742719247937 -0.017201140522956848
0.011980893090367317 0.014241574332118034 0.016915880143642426 -0.05080469325184822 -0.00940642785280943 -0.0056730955839157104 0.004079209174960852 0.02453230507671833
-0.0067784758284688 0.014384203590452671 -0.009684555232524872 0.011738423258066177 0.01189531572163105 -0.008714674040675163 0.02998076006770134 0.015247113071382046
0.006856922060251236 -0.00874319951981306 -0.0030201836489140987 -0.02688569575548172 -0.002055650344118476 -0.0027687987312674522 0.003189556300640106 -0.001376376487314701
0.012230494990944862 -0.02021062560379505 -0.003686977317556739 0.025858761742711067 0.05094732344150543 0.028454622253775597 0.007181404624134302 0.017186876386404037
-0.002340909792110324 -0.028768407180905342 0.01968289725482464 0.03126442804932594 0.019925367087125778 0.02032472938299179 -0.019426163285970688 0.007473795209079981
-0.0006052847020328045 0.03642762079834938 -0.006935368292033672 -0.03095064125955105 -0.006133076269179583 -0.006600188557058573 -0.016060102730989456 -0.015646476298570633
-0.043815840035676956 -0.026714539155364037 0.012030813843011856 0.00841515138745308 0.029695499688386917 -0.0015502063324674964 -0.009563320316374302 0.04096324369311333
0.008208338171243668 -0.041191451251506805 -0.006607320159673691 0.005302258301526308 0.011353323236107826 -0.0027687987312674522 0.01548958383500576 -0.016302572563290596
0.017015721648931503 0.0129507752135396 0.01233033649623394 -0.009021327830851078 0.014041892252862453 -0.016331098973751068 -0.002107353648170829 -0.011053800582885742
0.008272521197795868 0.01794281415641308 0.038709696382284164 0.0004368034133221954 0.012722567655146122 -0.0008236864232458174 -0.0008343836525455117 0.020153574645519257
-0.00984857976436615 0.001174911973066628 -0.0024389675818383694 -0.036484673619270325 0.009584714658558369 -0.0003793058276642114 -0.02563055418431759 -0.02380489371716976
-0.011110852472484112 0.021123455837368965 -0.009606109000742435 0.010697226040065289 -0.0027438385877758265 0.0032590883783996105 -0.0008410694426856935 -0.015375480055809021
0.02216465212404728 -0.021266086027026176 -0.01294364407658577 0.03851001337170601 0.008921486325562 0.004360902588814497 -0.008828777819871902 0.017300980165600777
0.009869974106550217 0.00830817874521017 0.024846090003848076 0.011360454373061657 0.021209033206105232 0.036113835871219635 -0.0051774573512375355 0.002583380090072751
0.004685385152697563 0.004681819584220648 0.01312193088233471 -0.005148931406438351 -0.010497544892132282 0.010789935477077961 -0.002075261902064085 0.011167904362082481
-0.007195667363703251 -0.010939696803689003 -0.02875414490699768 -0.030551278963685036 -0.022392859682440758 -0.005066919606178999 0.03468753769993782 0.041790496557950974
-0.02612975798547268 -0.008921486325562 0.006514610722661018 0.013521294109523296 0.0012453354429453611 -0.02021062560379505 -0.001436102669686079 0.031891997903585434
0.014648068696260452 -0.012323204427957535 -0.6581504344940186 -0.02267812006175518 -6.284620758378878e-05 -0.000722062774002552 0.010533202439546585 0.00211983360350132
0.020410308614373207 0.00451779505237937 -0.015204324387013912 0.0004475006426218897 -0.0024336189962923527 -0.0015065260231494904 -0.01251575443893671 -0.0018087226198986173
-0.010932565666735172 -0.010540333576500416 -0.004104169085621834 -0.0036691485438495874 0.004817317705601454 0.017985602840781212 -0.014947590418159962 0.019597318023443222
0.0031396360136568546 0.009812922216951847 0.0006222219672054052 0.032262835651636124 0.01611715368926525 -0.01909811422228813 -0.002913211239501834 0.010939696803689003
-0.027556054294109344 -0.0058906059712171555 -0.007759054657071829 -0.002984526101499796 0.030437175184488297 0.00423966720700264 -0.02975255250930786 0.017543451860547066
0.004146958235651255 0.05961920693516731 -0.006543136667460203 -0.007024511694908142 0.032519567757844925 0.01635962538421154 -0.009263797663152218 0.021651186048984528
0.023205850273370743 0.019140902906656265 0.009399295784533024 -0.008714674040675163 0.01128200814127922 -0.02637222781777382 -0.01405615545809269 0.02699979953467846
0.021508555859327316 -0.016060102730989456 0.0116385817527771 0.010511808097362518 0.004646162036806345 -0.006667937617748976 0.008165549486875534 -0.002175102708861232
