labs/embeddings/model.npy (npy, 12416 bytes, 1 tensors)

array f8 [1536]
000000 00 00 00 00 c0 b9 8d bf 00 00 00 00 7d d0 87 bf
       -0.014514446258544922 -0.011628128588199615
000010 00 00 00 c0 63 64 84 3f 00 00 00 c0 52 ad 98 bf
       0.009957103058695793 -0.024098675698041916
000020 00 00 00 40 2a 9a 60 bf 00 00 00 e0 95 78 9d 3f
       -0.0020266366191208363 0.028780309483408928
000030 00 00 00 c0 5a 27 81 bf 00 00 00 00 30 40 74 bf
       -0.008375843986868858 -0.004944026470184326
000040 00 00 00 c0 94 b5 82 bf 00 00 00 00 8b d2 a2 bf
       -0.009135400876402855 -0.03676256537437439
000050 00 00 00 a0 30 e6 80 3f 00 00 00 20 35 40 9b 3f
       0.0082515524700284 0.026612119749188423
000060 00 00 00 60 15 88 87 bf 00 00 00 e0 53 17 93 3f
       -0.01149002742022276 0.01864367537200451
000070 00 00 00 80 ad 5d a8 bf 00 00 00 40 87 77 95 bf
       -0.047589704394340515 -0.020963776856660843
000080 00 00 00 e0 c1 ab a3 3f 00 00 00 a0 32 31 97 3f
       0.038419779390096664 0.022648612037301064
000090 00 00 00 e0 d8 ea 91 3f 00 00 00 00 38 13 8d bf
       0.017497433349490166 -0.014196813106536865
0000a0 00 00 00 c0 58 35 7b bf 00 00 00 e0 11 0f 89 3f
       -0.00664267223328352 0.012235774658620358
0000b0 00 00 00 20 00 59 60 bf 00 00 00 e0 0b 87 96 bf
       -0.0019955637399107218 -0.021999536082148552
0000c0 00 00 00 20 ed af 8e bf 00 00 00 20 51 26 90 3f
       -0.014983990229666233 0.0157711673527956
0000d0 00 00 00 80 98 10 a0 3f 00 00 00 a0 66 37 96 bf
       0.031376615166664124 -0.021695712581276894
0000e0 00 00 00 a0 9b c5 90 3f 00 00 00 c0 28 6c 78 3f
       0.016378814354538918 0.005962523631751537
0000f0 00 00 00 a0 ae c7 82 3f 00 00 00 80 ef 65 92 bf
       0.009169925935566425 -0.01796697825193405
000100 00 00 00 80 c3 32 9c bf 00 00 00 00 09 b4 a4 bf
       -0.027537398040294647 -0.04043605923652649
000110 00 00 00 00 51 44 51 3f 00 00 00 c0 84 68 71 3f
       0.00105388555675745 0.004250067286193371
000120 00 00 00 60 1d 02 80 bf 00 00 00 20 46 f7 86 bf
       -0.00781653355807066 -0.011213825084269047
000130 00 00 00 40 07 a4 7d 3f 00 00 00 c0 23 4e 70 3f
       0.007236507721245289 0.0039807697758078575
000140 00 00 00 00 c5 60 94 3f 00 00 00 60 e7 09 5b 3f
       0.019900396466255188 0.0016503104707226157
000150 00 00 00 80 f7 38 4b bf 00 00 00 e0 1d 1f 5e 3f
       -0.0008307655807584524 0.001838473486714065
000160 00 00 00 40 ef 83 73 3f 00 00 00 e0 9a 1f 74 bf
       0.004764494486153126 -0.004912953358143568
000170 00 00 00 00 bf d8 61 3f 00 00 00 80 c3 32 7c bf
       0.002178547903895378 -0.006884349510073662
000180 00 00 00 e0 cb 70 a2 bf 00 00 00 e0 94 97 61 3f
       -0.03601681813597679 0.0021474750246852636
000190 00 00 00 00 d3 bb 7f 3f 00 00 00 e0 5a 09 a0 3f
       0.007747482508420944 0.03132137283682823
0001a0 00 00 00 40 53 71 56 3f 00 00 00 00 53 8f 77 bf
       0.0013697922695428133 -0.005751919001340866
0001b0 00 00 00 00 bb 9b 65 bf 00 00 00 40 f0 64 7f bf
       -0.0026377346366643906 -0.0076646218076348305
0001c0 00 00 00 c0 96 00 39 bf 00 00 00 e0 7e 39 4f 3f
       -0.0003815048257820308 0.0009528989321552217
0001d0 00 00 00 20 ab 4e 84 3f 00 00 00 60 9b e3 a1 bf
       0.009915673173964024 -0.03493962809443474
0001e0 00 00 00 00 36 c8 86 3f 00 00 00 80 22 02 77 3f
       0.011124059557914734 0.0056172702461481094
0001f0 00 00 00 c0 62 fa 89 bf 00 00 00 80 4a f8 90 3f
       -0.012684604153037071 0.01657215505838394
000200 00 00 00 20 cc 52 91 bf 00 00 00 20 ab 4e 74 3f
       -0.016917409375309944 0.004957836586982012
000210 00 00 00 80 95 b4 8f bf 00 00 00 e0 fb 39 45 bf
       -0.01548115536570549 -0.0006477813585661352
000220 00 00 00 20 3a e7 81 bf 00 00 00 40 d2 bc a2 3f
       -0.008741811849176884 0.03659684211015701
000230 00 00 00 a0 78 cf 9d 3f 00 00 00 80 e6 81 7f 3f
       0.029111752286553383 0.007692242041230202
000240 00 00 00 00 3d ba 83 3f 00 00 00 00 1f 89 68 bf
       0.009632565081119537 -0.0029950719326734543
000250 00 00 00 e0 d1 f8 84 3f 00 00 00 40 8b b4 81 bf
       0.01024021115154028 -0.008645141497254372
000260 00 00 00 c0 a0 c5 97 bf 00 00 00 60 f8 c0 76 3f
       -0.023214828222990036 0.0055551244877278805
000270 00 00 00 20 8c 95 8d bf 00 00 00 20 24 89 6f bf
       -0.014445395208895206 -0.003849573666229844
000280 00 00 00 c0 e1 45 56 3f 00 00 00 c0 b8 6e 90 bf
       0.0013594345655292273 -0.016047369688749313
000290 00 00 00 20 c3 6e 8e bf 00 00 00 40 bd c8 8a 3f
       -0.01485969964414835 0.013078192248940468
0002a0 00 00 00 a0 59 bd a6 3f 00 00 00 c0 d0 8e 6a 3f
       0.04441337659955025 0.0032419278286397457
0002b0 00 00 00 00 4b 15 7f bf 00 00 00 60 da 8f 8b 3f
       -0.007588665932416916 0.01345797162503004
0002c0 00 00 00 60 84 a4 63 3f 00 00 00 20 b8 c8 83 3f
       0.002397783799096942 0.009660185314714909
0002d0 00 00 00 60 b9 8b 6e 3f 00 00 00 60 b9 8b 8e 3f
       0.003728735027834773 0.014914940111339092
0002e0 00 00 00 40 6a b0 84 3f 00 00 00 e0 c0 41 49 3f
       0.010102109983563423 0.0007707778713665903
0002f0 00 00 00 e0 cb 70 92 bf 00 00 00 20 da ad 7c 3f
       -0.018008409067988396 0.007001735735684633
000300 00 00 00 c0 dc 9e 6f 3f 00 00 00 80 60 cd 94 3f
       0.0038599311374127865 0.02031470090150833
000310 00 00 00 60 ec b0 81 3f 00 00 00 40 56 26 87 bf
       0.008638235740363598 -0.01130359061062336
000320 00 00 00 60 13 3d 81 3f 00 00 00 40 ba 13 8a 3f
       0.008417273871600628 0.012732939794659615
000330 00 00 00 40 56 26 a7 bf 00 00 00 e0 e2 af 80 bf
       -0.04521436244249344 -0.008147976361215115
000340 00 00 00 a0 ff 94 a2 bf 00 00 00 60 cf e9 90 3f
       -0.036293018609285355 0.0165169145911932
000350 00 00 00 80 ea be 7b 3f 00 00 00 40 5a 63 63 bf
       0.006773868575692177 -0.0023667109198868275
000360 00 00 00 20 d2 da 93 3f 00 00 00 60 fa 0b 6d bf
       0.019389422610402107 -0.003545750631019473
000370 00 00 00 a0 a9 20 9c bf 00 00 00 60 b8 aa a2 3f
       -0.027468347921967506 0.03645874187350273
000380 00 00 00 c0 94 b5 82 3f 00 00 00 80 9c a6 ac bf
       0.009135400876402855 -0.055958643555641174
000390 00 00 00 c0 86 b3 67 3f 00 00 00 c0 ab f4 90 bf
       0.0028932220302522182 -0.016558345407247543
0003a0 00 00 00 20 7e 3a 92 bf 00 00 00 40 9a 79 67 bf
       -0.017801256850361824 -0.002865601796656847
0003b0 00 00 00 c0 b1 7c 83 3f 00 00 00 20 04 ef 9c bf
       0.009515179321169853 -0.0282555241137743
0003c0 00 00 00 a0 26 21 82 3f 00 00 00 80 52 cb 99 3f
       0.008852292783558369 0.025189675390720367
0003d0 00 00 00 20 3b c8 8d 3f 00 00 00 e0 a4 e4 92 bf
       0.014542066492140293 -0.018450332805514336
0003e0 00 00 00 20 96 5a 8c bf 00 00 00 40 8f 4a 3e 3f
       -0.013844654895365238 0.0004622077685780823
0003f0 00 00 00 c0 90 78 86 bf 00 00 00 c0 29 d6 72 bf
       -0.010972147807478905 -0.004598773084580898
000400 00 00 00 c0 7a a3 72 bf 00 00 00 c0 12 97 74 3f
       -0.004550437442958355 0.00502688717097044
000410 00 00 00 40 10 88 a0 3f 00 00 00 e0 93 2d 87 3f
       0.0322880819439888 0.011317401193082333
000420 00 00 00 e0 f2 fc 91 3f 00 00 00 c0 9a 3d 85 3f
       0.017566485330462456 0.010371407493948936
000430 00 00 00 20 90 d2 99 bf 00 00 00 c0 7a a3 a2 3f
       -0.025217296555638313 0.03640349954366684
000440 00 00 00 00 b4 a9 98 bf 00 00 00 40 3f e7 88 3f
       -0.024084866046905518 0.012159818783402443
000450 00 00 00 80 3b 8c 9b bf 00 00 00 20 97 c4 96 bf
       -0.026902131736278534 -0.02223430760204792
000460 00 00 00 c0 2a b7 8e 3f 00 00 00 a0 65 cd 8b 3f
       0.014997800812125206 0.013575357384979725
000470 00 00 00 00 be 6e 97 bf 00 00 00 e0 8d a5 94 3f
       -0.02288338541984558 0.020162789151072502
000480 00 00 00 e0 6e ec 7d bf 00 00 00 00 2a b8 81 3f
       -0.007305558305233717 0.00865204632282257
000490 00 00 00 60 cb ac 94 3f 00 00 00 a0 c0 5f 9a 3f
       0.0201904084533453 0.02575589157640934
0004a0 00 00 00 e0 fa cf 5a 3f 00 00 00 80 ef 65 82 bf
       0.00163650035392493 -0.008983489125967026
0004b0 00 00 00 e0 0d d2 9c 3f 00 00 00 40 28 a8 9a bf
       0.028145043179392815 -0.026032093912363052
0004c0 00 00 00 e0 b0 f4 97 3f 00 00 00 c0 c8 bb 81 3f
       0.023394359275698662 0.00865895114839077
0004d0 00 00 00 00 b5 13 93 3f 00 00 00 e0 2e d6 99 3f
       0.01862986385822296 0.02523110620677471
0004e0 00 00 00 20 cc 52 41 3f 00 00 00 c0 46 9d 93 3f
       0.0005286690429784358 0.01915464922785759
0004f0 00 00 00 e0 c7 33 86 bf 00 00 00 80 50 80 73 bf
       -0.010840951465070248 -0.004761042073369026
000500 00 00 00 60 db f9 75 3f 00 00 00 20 61 73 41 3f
       0.005365235265344381 0.0005325531237758696
000510 00 00 00 e0 7e 39 5f 3f 00 00 00 40 dc 81 91 3f
       0.0019057978643104434 0.01709694042801857
000520 00 00 00 c0 77 ee 91 3f 00 00 00 e0 7d 58 93 3f
       0.017511244863271713 0.018892256543040276
000530 00 00 00 00 64 46 83 3f 00 00 00 40 ec ce 92 3f
       0.009411603212356567 0.018367473036050797
000540 00 00 00 40 53 71 76 bf 00 00 00 00 6e 0b 62 bf
       -0.005479169078171253 -0.0022027157247066498
000550 00 00 00 80 bb 5f 93 bf 00 00 00 60 23 8a a2 3f
       -0.01891987770795822 0.036210160702466965
000560 00 00 00 40 2e 30 8d bf 00 00 00 00 26 7b 85 3f
       -0.014252053573727608 0.01048879325389862
000570 00 00 00 00 d6 17 90 bf 00 00 00 20 c8 15 95 3f
       -0.01571592688560486 0.020590903237462044
000580 00 00 00 40 c9 d8 8f bf 00 00 00 80 b1 9a 84 3f
       -0.015550205484032631 0.010060679167509079
000590 00 00 00 a0 9e 7a 91 bf 00 00 00 60 ec b0 91 bf
       -0.017069319263100624 -0.017276471480727196
0005a0 00 00 00 e0 94 97 91 bf 00 00 00 e0 82 76 8b 3f
       -0.01717980019748211 0.013409635983407497
0005b0 00 00 00 e0 26 03 91 3f 00 00 00 60 47 43 a0 3f
       0.016613585874438286 0.03176329657435417
0005c0 00 00 00 e0 01 c2 87 bf 00 00 00 c0 35 e6 77 bf
       -0.011600508354604244 -0.00583477970212698
0005d0 00 00 00 80 0d 0e 5f 3f 00 00 00 c0 a0 c5 97 bf
       0.0018954402767121792 -0.023214828222990036
0005e0 00 00 00 00 ec ec 83 bf 00 00 00 e0 9f 3d 8c bf
       -0.009729236364364624 -0.013789414428174496
0005f0 00 00 00 20 a1 89 85 3f 00 00 00 40 0b e1 99 3f
       0.010516413487493992 0.025272537022829056
000600 00 00 00 20 5d 36 a5 3f 00 00 00 80 18 3d 58 3f
       0.041430387645959854 0.0014794101007282734
000610 00 00 00 c0 b7 04 e6 bf 00 00 00 80 e8 73 95 bf
       -0.6880759000778198 -0.020949967205524445
000620 00 00 00 c0 ac d5 8c bf 00 00 00 c0 25 99 66 3f
       -0.014079427346587181 0.0027585732750594616
000630 00 00 00 a0 19 a7 92 3f 00 00 00 c0 f1 92 87 3f
       0.018215561285614967 0.011510742828249931
000640 00 00 00 20 fc 1b 84 3f 00 00 00 20 e5 dc 95 bf
       0.009819001890718937 -0.02135046012699604
000650 00 00 00 40 10 88 80 bf 00 00 00 00 6c 19 5c 3f
       -0.0080720204859972 0.0017150454223155975
000660 00 00 00 00 7b 85 91 bf 00 00 00 40 54 db 90 3f
       -0.017110750079154968 0.016461674124002457
000670 00 00 00 c0 9a 3d 75 bf 00 00 00 60 a3 b6 8a bf
       -0.005185703746974468 -0.013043667189776897
000680 00 00 00 40 11 69 9c bf 00 00 00 c0 e7 cd 98 bf
       -0.02774455025792122 -0.0242229662835598
000690 00 00 00 80 98 10 60 bf 00 00 00 60 e3 cc 7e bf
       -0.0019610384479165077 -0.007519615348428488
0006a0 00 00 00 a0 55 80 0a 3f 00 00 00 60 7e 1c 81 3f
       5.054723078501411e-05 0.008355128578841686
0006b0 00 00 00 40 9a 79 57 bf 00 00 00 60 7a df 74 3f
       -0.0014328008983284235 0.005095937754958868
0006c0 00 00 00 80 90 96 37 3f 00 00 00 a0 c0 5f 5a 3f
       0.0003599264891818166 0.0016097432235255837
0006d0 00 00 00 80 26 3f 73 bf 00 00 00 a0 26 21 92 3f
       -0.0046988967806100845 0.017704585567116737
0006e0 00 00 00 e0 f2 fc 81 bf 00 00 00 20 02 a4 86 bf
       -0.008783242665231228 -0.011055008508265018
0006f0 00 00 00 a0 6a 74 a2 3f 00 00 00 60 32 4f 88 3f
       0.03604443743824959 0.011869805864989758
000700 00 00 00 c0 50 62 92 bf 00 00 00 c0 40 15 a1 3f
       -0.017953168600797653 0.03336527198553085
000710 00 00 00 60 c2 6f 81 3f 00 00 00 00 11 87 7d 3f
       0.008513945154845715 0.007208887487649918
000720 00 00 00 00 bf d8 91 3f 00 00 00 00 37 32 91 bf
       0.017428383231163025 -0.01679311692714691
000730 00 00 00 20 6b 38 90 bf 00 00 00 40 ef 83 a3 3f
       -0.01584021933376789 0.038115955889225006
000740 00 00 00 40 e4 54 6a bf 00 00 00 40 bf ba b0 3f
       -0.0032143075950443745 0.0653495341539383
000750 00 00 00 e0 fb 39 65 bf 00 00 00 e0 44 ab 5d bf
       -0.0025911254342645407 -0.0018108532531186938
000760 00 00 00 e0 6a 56 91 3f 00 00 00 80 ad 5d 28 bf
       0.016931219026446342 -0.00018589728279039264
000770 00 00 00 c0 1a 6a 8d bf 00 00 00 80 4c 43 97 3f
       -0.014362534508109093 0.022717662155628204
000780 00 00 00 00 ea fa 9d 3f 00 00 00 60 70 1a 76 bf
       0.02927747368812561 -0.005396307911723852
000790 00 00 00 80 3d 7e 21 3f 00 00 00 a0 f9 0c 60 3f
       0.00013346195919439197 0.0019593120086938143
0007a0 00 00 00 00 f0 29 90 3f 00 00 00 00 ee 37 4a 3f
       0.01578497886657715 0.0008001243695616722
0007b0 00 00 00 e0 c7 33 86 3f 00 00 00 c0 d8 08 93 3f
       0.010840951465070248 0.018588434904813766
0007c0 00 00 00 a0 fc df 91 3f 00 00 00 60 6d 65 95 bf
       0.01745600439608097 -0.020894726738333702
0007d0 00 00 00 60 91 1e 93 3f 00 00 00 60 13 3d 91 bf
       0.018671294674277306 -0.016834547743201256
0007e0 00 00 00 c0 be f6 92 3f 00 00 00 a0 40 33 52 3f
       0.018519382923841476 0.0011108523467555642
0007f0 00 00 00 40 9a 79 87 3f 00 00 00 00 a2 11 91 bf
       0.011462407186627388 -0.01666882634162903
