labs/embeddings/player.npy (npy, 12416 bytes, 1 tensors)

array f8 [1536]
-0.007119208574295044 -0.024886276572942734 0.014307201839983463 -0.017471294850111008 -0.007593822665512562 0.029880041256546974 -0.008653106167912483 -0.009733024053275585
-0.017347482964396477 -0.015889247879385948 0.02571169286966324 0.0053411261178553104 -0.010317693464457989 0.01645328290760517 -0.005499330814927816 -0.019809972494840622
0.031173191964626312 -0.00322599895298481 0.03100810945034027 -0.03703363984823227 -0.010895484127104282 0.00880443211644888 -0.011755292303860188 -0.023648153990507126
-0.020552845671772957 -0.01048965472728014 0.011975402943789959 -0.01597178913652897 0.02410213276743889 -0.008274789899587631 0.023042848333716393 -0.02118566446006298
-0.0195210762321949 -0.02899959683418274 -0.041408345103263855 -0.009829322807490826 -0.009870593436062336 -0.008680619299411774 -0.0023232006933540106 0.014857478439807892
0.025381525978446007 0.008219762705266476 -0.008529293350875378 0.0038519389927387238 -0.014953777194023132 0.018723174929618835 -0.020415276288986206 0.0030471589416265488
-0.026908544823527336 0.010847334749996662 0.005138211417943239 0.006496707908809185 -0.0061734202317893505 -0.018434278666973114 0.007298048585653305 0.005867328494787216
0.003893209621310234 0.015765435993671417 0.008412359282374382 -0.03565794974565506 0.004385019652545452 0.0037487619556486607 -0.015022561885416508 0.012828332372009754
-0.01609560288488865 0.023373015224933624 -0.0012802538694813848 0.0038622566498816013 -0.0053170514293015 0.019025826826691628 0.026454566046595573 0.015449026599526405
0.0036455851513892412 -0.0006349680479615927 0.007153600919991732 -0.020429033786058426 -0.020346492528915405 0.007012592628598213 -0.0011057128431275487 0.014155875891447067
0.015724165365099907 -0.026454566046595573 -0.0030316822230815887 0.005090062040835619 0.03056788630783558 -0.015008805319666862 0.011631479486823082 0.0017832414014264941
-0.004089246038347483 -0.001153862103819847 0.013825709000229836 0.018681904301047325 -0.005004081409424543 0.002845963928848505 -0.031530871987342834 0.017182398587465286
-0.014884992502629757 0.00880443211644888 0.015036318451166153 -0.020167652517557144 0.007373711559921503 0.009279046207666397 -0.030045123770833015 -0.01225742045789957
-0.015765435993671417 -0.002292247489094734 -0.009774294681847095 0.0013817111030220985 0.023620638996362686 0.0036077534314244986 -0.014403500594198704 0.011143108829855919
0.0031331395730376244 -0.03521772846579552 -0.008446752093732357 0.008302303962409496 -0.01445852778851986 -0.0016783447936177254 -0.0011977122630923986 -0.026537107303738594
0.030045123770833015 0.010936755686998367 0.014898749999701977 -0.003134859260171652 0.009698632173240185 0.007456253282725811 -0.0177739467471838 -0.01645328290760517
-0.00027126935310661793 0.0153252137824893 0.0356854647397995 0.0005562956212088466 0.033044133335351944 -0.007373711559921503 -0.01524267252534628 0.00034284836146980524
-0.01465112529695034 -0.014100847765803337 -0.006434801500290632 -0.046333324164152145 -0.006943807937204838 0.018723174929618835 0.0028734777588397264 -0.020236436277627945
-0.015352727845311165 0.013124106451869011 0.0003985209041275084 0.0005287817912176251 -0.006441680248826742 0.00727741327136755 0.005358322057873011 0.01132882758975029
0.023840751498937607 -0.003138298401609063 -0.00608400022611022 0.01533897127956152 0.0024143403861671686 0.006579249165952206 -0.005482134409248829 -0.00966423936188221
0.007304926868528128 -4.1700677684275433e-05 0.014073333702981472 -0.034832533448934555 -0.01118437945842743 0.057779084891080856 0.023937048390507698 0.02579423412680626
-0.0020704171620309353 -0.007449374999850988 0.010634102858603 0.01803532801568508 -0.025560365989804268 0.026867274194955826 -0.02411588840186596 0.017086099833250046
-0.006847509182989597 0.02096555382013321 -0.006847509182989597 0.0018829790642485023 -0.013839466497302055 0.004986885469406843 0.026908544823527336 0.032741479575634
-0.014114605262875557 0.001570868887938559 0.007077937945723534 -0.00651046447455883 0.003917284309864044 -0.007862082682549953 0.012491287663578987 0.036455851048231125
0.0422612726688385 -0.026729704812169075 -0.6841043829917908 -0.020167652517557144 -0.010723522864282131 0.007435617968440056 0.007951502688229084 0.021392017602920532
0.03761143237352371 0.0028236089274287224 -0.0023283595219254494 0.004646401386708021 -0.009354708716273308 0.014080212451517582 -0.009650482796132565 0.0008555087842978537
-0.02584926225244999 -0.028696944937109947 0.008653106167912483 -0.018805716186761856 -0.02752760611474514 0.011961646378040314 0.008309182710945606 0.006255961488932371
-0.0017118772957473993 0.007648850325495005 0.009361587464809418 0.013846345245838165 -0.0025433115661144257 0.00021957341232337058 -0.0033033816143870354 0.008577442727982998
0.009168989956378937 0.0026413295418024063 0.0017729236278682947 -0.009499156847596169 0.016590850427746773 -0.013928886502981186 -0.0010971147567033768 0.036730989813804626
-0.0062456438317894936 0.04099563509225845 0.007187993265688419 -0.010998661629855633 0.023524342104792595 -0.007820812053978443 -0.006809677928686142 0.022038593888282776
0.004446926061064005 -0.0032156810630112886 -0.013213526457548141 -0.0007639392279088497 0.011679628863930702 -0.013234161771833897 0.012807697057723999 0.012450017035007477
0.006795920897275209 0.007091694511473179 0.007077937945723534 -0.02117190696299076 -0.001588065060786903 -0.011934132315218449 -0.0037487619556486607 -0.011101838201284409
00000000: 0000 0000 0829 7dbf 0000 00c0 c97b 99bf
00000010: 0000 0020 184d 8d3f 0000 00c0 fee3 91bf
00000020: 0000 0040 b31a 7fbf 0000 00a0 df98 9e3f
00000030: 0000 0040 b8b8 81bf 0000 0060 e8ee 83bf
00000040: 0000 00e0 89c3 91bf 0000 0060 4545 90bf
00000050: 0000 0080 2a54 9a3f 0000 00a0 93e0 753f
00000060: 0000 0060 7121 85bf 0000 0020 21d9 903f
00000070: 0000 0060 7786 76bf 0000 00c0 1049 94bf
00000080: 0000 0080 ddeb 9f3f 0000 0000 696d 6abf
00000090: 0000 0000 97c0 9f3f 0000 00c0 12f6 a2bf
000000a0: 0000 0020 5f50 86bf 0000 00e0 0e08 823f
000000b0: 0000 00a0 2813 88bf 0000 00c0 3837 98bf
000000c0: 0000 0020 ce0b 95bf 0000 00a0 997b 85bf
000000d0: 0000 0060 8f86 883f 0000 00a0 e85a 90bf
000000e0: 0000 00c0 3aae 983f 0000 0080 5ff2 80bf
000000f0: 0000 0060 8b98 973f 0000 00e0 b1b1 95bf
00000100: 0000 0040 55fd 93bf 0000 0000 12b2 9dbf
00000110: 0000 0080 7933 a5bf 0000 0060 6521 84bf
00000120: 0000 00a0 0837 84bf 0000 0000 25c7 81bf
00000130: 0000 00e0 1a08 63bf 0000 0000 996d 8e3f
00000140: 0000 0060 9dfd 993f 0000 00e0 85d5 803f
00000150: 0000 0060 ce77 81bf 0000 0000 1a8e 6f3f
00000160: 0000 0000 16a0 8ebf 0000 0000 2b2c 933f
00000170: 0000 0000 bee7 94bf 0000 0000 5bf6 683f
00000180: 0000 00e0 e98d 9bbf 0000 00a0 2037 863f
00000190: 0000 0020 ce0b 753f 0000 00c0 4a9c 7a3f
000001a0: 0000 00e0 4c49 79bf 0000 0080 6fe0 92bf
000001b0: 0000 0000 8fe4 7d3f 0000 0000 5708 783f
000001c0: 0000 0000 a7e4 6f3f 0000 0080 d024 903f
000001d0: 0000 00c0 7f3a 813f 0000 0040 c241 a2bf
000001e0: 0000 00c0 06f6 713f 0000 0040 b9b5 6e3f
000001f0: 0000 0020 26c4 8ebf 0000 00a0 bd45 8a3f
00000200: 0000 00a0 5d7b 90bf 0000 0080 18ef 973f
00000210: 0000 0020 c6f9 54bf 0000 0040 bda3 6f3f
00000220: 0000 0020 55c7 75bf 0000 00a0 817b 933f
00000230: 0000 00e0 e716 9b3f 0000 0040 bda3 8f3f
00000240: 0000 00a0 58dd 6d3f 0000 0080 7fce 44bf
00000250: 0000 0020 184d 7d3f 0000 0040 59eb 94bf
00000260: 0000 0000 b6d5 94bf 0000 0080 3cb9 7c3f
00000270: 0000 0020 b21d 52bf 0000 0080 c1fd 8c3f
00000280: 0000 00e0 fe19 903f 0000 00e0 e716 9bbf
00000290: 0000 0000 e6d5 68bf 0000 0020 51d9 743f
000002a0: 0000 0020 304d 9f3f 0000 00c0 efbc 8ebf
000002b0: 0000 00c0 3ed2 873f 0000 00e0 7437 5d3f
000002c0: 0000 00a0 e2bf 70bf 0000 0000 a6e7 52bf
000002d0: 0000 0040 a750 8c3f 0000 0060 5921 933f
000002e0: 0000 00e0 287f 74bf 0000 0040 6b50 673f
000002f0: 0000 0080 d024 a0bf 0000 0040 4398 913f
00000300: 0000 00e0 057c 8ebf 0000 00e0 0e08 823f
00000310: 0000 0080 5ccb 8e3f 0000 0040 d4a6 94bf
00000320: 0000 00a0 e533 7e3f 0000 0080 e400 833f
00000330: 0000 0020 26c4 9ebf 0000 0020 6b1a 89bf
00000340: 0000 0080 d024 90bf 0000 0000 31c7 62bf
00000350: 0000 00a0 8b04 84bf 0000 0000 51a3 563f
00000360: 0000 0040 0230 983f 0000 00e0 018e 6d3f
00000370: 0000 0020 957f 8dbf 0000 00c0 32d2 863f
00000380: 0000 0080 abaa 693f 0000 00e0 0e08 a2bf
00000390: 0000 00e0 874c 81bf 0000 0060 cc00 813f
000003a0: 0000 00c0 6e9c 8dbf 0000 0000 7d7f 5bbf
000003b0: 0000 00c0 919f 53bf 0000 0020 8b2c 9bbf
000003c0: 0000 0020 26c4 9e3f 0000 0080 0266 863f
000003d0: 0000 0060 3c83 8e3f 0000 00c0 46ae 69bf
000003e0: 0000 0060 e0dc 833f 0000 00c0 728a 7e3f
000003f0: 0000 0060 5533 92bf 0000 0020 21d9 90bf
00000400: 0000 0000 25c7 31bf 0000 0060 d362 8f3f
00000410: 0000 0080 5d45 a23f 0000 00c0 8b3a 423f
00000420: 0000 0020 29eb a03f 0000 00a0 e533 7ebf
00000430: 0000 00e0 8c37 8fbf 0000 0080 0a78 363f
00000440: 0000 00c0 6801 8ebf 0000 00c0 e7e0 8cbf
00000450: 0000 00e0 605b 7abf 0000 0060 00b9 a7bf
00000460: 0000 0040 1c71 7cbf 0000 0000 2b2c 933f
00000470: 0000 00a0 1e8a 673f 0000 0040 dcb8 94bf
00000480: 0000 0040 4071 8fbf 0000 00c0 cfe0 8a3f
00000490: 0000 0040 121e 3a3f 0000 0040 be53 413f
000004a0: 0000 0060 9762 7abf 0000 00c0 ebce 7d3f
000004b0: 0000 00a0 9bf2 753f 0000 0080 9133 873f
000004c0: 0000 00c0 b569 983f 0000 0020 7db5 69bf
000004d0: 0000 0060 89eb 78bf 0000 00e0 096a 8f3f
000004e0: 0000 0020 3dc7 633f 0000 00c0 d7f2 7a3f
000004f0: 0000 0040 6f74 76bf 0000 0040 d8ca 83bf
00000500: 0000 0060 c5eb 7d3f 0000 0060 f8dc 05bf
00000510: 0000 00e0 7ad2 8c3f 0000 00e0 91d5 a1bf
00000520: 0000 0000 d6e7 86bf 0000 0060 3895 ad3f
00000530: 0000 0020 f482 983f 0000 00c0 cd69 9a3f
00000540: 0000 00c0 faf5 60bf 0000 0060 3c83 7ebf
00000550: 0000 0020 55c7 853f 0000 0060 da77 923f
00000560: 0000 0020 7f2c 9abf 0000 0040 1883 9b3f
00000570: 0000 00e0 d5b1 98bf 0000 00c0 047f 913f
00000580: 0000 0040 220c 7cbf 0000 0080 fe77 953f
00000590: 0000 0040 220c 7cbf 0000 0060 c9d9 5e3f
000005a0: 0000 00c0 dd57 8cbf 0000 00e0 206d 743f
000005b0: 0000 00e0 e98d 9b3f 0000 00c0 7dc3 a03f
000005c0: 0000 0040 1ee8 8cbf 0000 00a0 b3bc 593f
000005d0: 0000 0080 c1fd 7c3f 0000 0080 b7aa 7abf
000005e0: 0000 0000 920b 703f 0000 00e0 fe19 80bf
000005f0: 0000 0040 0895 893f 0000 0060 57aa a23f
00000600: 0000 0000 45a3 a53f 0000 0020 085f 9bbf
00000610: 0000 00e0 2ee4 e5bf 0000 0040 d4a6 94bf
00000620: 0000 00e0 36f6 85bf 0000 0080 cf74 7e3f
00000630: 0000 00a0 e048 803f 0000 0000 cae7 953f
00000640: 0000 0040 ce41 a33f 0000 0080 8921 673f
00000650: 0000 0080 ec12 63bf 0000 00e0 1a08 733f
00000660: 0000 00c0 8f28 83bf 0000 0020 16d6 8c3f
00000670: 0000 00e0 a1c3 83bf 0000 0020 8708 4c3f
00000680: 0000 00a0 3a78 9abf 0000 0060 bb62 9dbf
00000690: 0000 0040 b8b8 813f 0000 0040 ce41 93bf
000006a0: 0000 0060 3230 9cbf 0000 0000 597f 883f
000006b0: 0000 00a0 6704 813f 0000 00e0 d99f 793f
000006c0: 0000 0040 220c 5cbf 0000 00a0 6654 7f3f
000006d0: 0000 0000 2b2c 833f 0000 0000 795b 8c3f
000006e0: 0000 0000 b6d5 64bf 0000 0040 a9c7 2c3f
000006f0: 0000 0080 b10f 6bbf 0000 00e0 0c91 813f
00000700: 0000 0000 31c7 823f 0000 0000 45a3 653f
00000710: 0000 0040 2e0c 5d3f 0000 0040 4b74 83bf
00000720: 0000 0020 31fd 903f 0000 0080 bf86 8cbf
00000730: 0000 0000 a2f9 51bf 0000 0080 67ce a23f
00000740: 0000 0040 0895 79bf 0000 0040 61fd a43f
00000750: 0000 0040 2871 7d3f 0000 0060 7786 86bf
00000760: 0000 00e0 c316 983f 0000 00a0 5b04 80bf
00000770: 0000 0000 77e4 7bbf 0000 0000 4991 963f
00000780: 0000 00a0 f036 723f 0000 00a0 c557 6abf
00000790: 0000 0080 b10f 8bbf 0000 0000 6308 49bf
000007a0: 0000 0040 7deb 873f 0000 0020 831a 8bbf
000007b0: 0000 0000 ec3a 8a3f 0000 0000 657f 893f
000007c0: 0000 0020 0ad6 7b3f 0000 0040 2e0c 7d3f
000007d0: 0000 0080 c1fd 7c3f 0000 00a0 16ae 95bf
000007e0: 0000 00e0 d304 5abf 0000 0020 ec70 88bf
000007f0: 0000 0040 b9b5 6ebf 0000 0080 8fbc 86bf
