labs/embeddings/weight.npy (npy, 12416 bytes, 1 tensors)

array f8 [1536]
0.020593367516994476 -0.024157604202628136 0.010699537582695484 -0.002352259587496519 -0.0099894218146801 0.006653924472630024 -0.0164282638579607 -0.028049586340785027
0.015130935236811638 -0.01220853440463543 0.016605792567133904 0.026834195479750633 -0.0009303204133175313 -0.002560514723882079 -0.006524191703647375 0.014065761119127274
0.049926623702049255 0.004765971563756466 0.03187328949570656 -0.025632459670305252 -0.024048354476690292 -0.007026052568107843 -0.014420819468796253 -0.02301049418747425
-0.03575161471962929 0.02060702256858349 0.0168925691395998 -0.03173672780394554 0.02221844159066677 -0.04197878763079643 0.019528193399310112 -0.022259408608078957
-0.02212284877896309 -0.0055921645835042 -0.03465912863612175 0.0022361830342561007 -0.0241166353225708 -0.010924863629043102 0.0011087029706686735 -0.026547417044639587
0.01664675958454609 0.01543136965483427 0.022177472710609436 0.0012913530226796865 -0.028131522238254547 -0.007681544404476881 0.00033969496143981814 -0.012085629627108574
-0.008371176198124886 -0.004373359493911266 -0.003765663830563426 0.018517643213272095 -0.011867132969200611 -0.0071421293541789055 -0.00016056561435107142 0.002441024174913764
0.025045249611139297 0.01697450689971447 0.015663523226976395 -0.010965831577777863 0.0068963197991251945 0.015677178278565407 -0.019377976655960083 0.00039623965858481824
-0.0039329505525529385 -0.013096179813146591 0.016400951892137527 0.003357688430696726 -0.0021969217341393232 0.006681236904114485 0.009654847905039787 0.021631229668855667
0.009900657460093498 0.002743165008723736 0.020511431619524956 -0.03362126648426056 0.013608282431960106 0.012761605903506279 0.005540953949093819 -0.004868392366915941
0.02340652048587799 -0.0017462711548432708 0.002848999574780464 0.013096179813146591 0.02078455314040184 -0.005756037309765816 9.308538574259728e-05 0.010665398091077805
0.018135273829102516 -0.023433832451701164 -0.0001484031672589481 -0.0012939134612679482 -0.0020688960794359446 0.022395970299839973 -0.010487868450582027 0.005045921076089144
0.00032241150620393455 0.0325014665722847 -0.01825817860662937 -0.018026024103164673 0.004369945265352726 0.032556094229221344 -0.021317139267921448 -0.011655463837087154
-0.017233971506357193 -0.028431957587599754 -0.00558875035494566 -0.008418972603976727 0.005742381326854229 -0.022641779854893684 -0.024567285552620888 0.022559842094779015
0.005578508134931326 -0.02735312655568123 -0.023201677948236465 -0.004209486301988363 0.013669734820723534 0.008261927403509617 -0.004503092262893915 -0.027407750487327576
0.013540002517402172 0.0010865117656067014 0.050445556640625 0.007674716413021088 0.01570449024438858 0.0022225268185138702 -0.017670966684818268 -0.00856236182153225
-0.010317168198525906 0.009374897927045822 0.020989393815398216 0.02743506245315075 0.023652328178286552 -0.006701720878481865 -0.025045249611139297 0.024840407073497772
-0.006715376861393452 0.010399104095995426 -0.03807314857840538 -0.021931663155555725 -0.008726234547793865 0.019063886255025864 -0.03149091824889183 -0.023338239639997482
-0.012898166663944721 0.018121616914868355 0.0131644606590271 0.018463019281625748 0.007688372395932674 -0.01745246909558773 0.013082523830235004 -0.004117307718843222
0.026465481147170067 0.007401594892144203 -0.001027619931846857 0.024130292236804962 0.0007468168041668832 0.014844157733023167 -0.017479781061410904 0.004496264271438122
-0.012529452331364155 0.01911851018667221 0.015008031390607357 -0.003437917912378907 -0.005428291391581297 0.03935682028532028 -0.001325493212789297 0.003395242616534233
-0.015567930415272713 -0.0003405484603717923 -0.0005086889723315835 0.027803776785731316 -0.028732391074299812 0.025427618995308876 -0.0009371484047733247 0.036052048206329346
0.019610129296779633 -0.00025925211957655847 -0.027858400717377663 -0.021631229668855667 -0.008630641736090183 0.02903282456099987 0.021521979942917824 0.02370695397257805
-0.01625073328614235 0.008869623765349388 0.022464249283075333 -0.007346970494836569 0.013656078837811947 -0.015649866312742233 0.018039681017398834 0.01563621126115322
-0.002862655557692051 0.008719406090676785 -0.6799634695053101 -0.015567930415272713 0.01793043129146099 -0.0005761158536188304 0.009873345494270325 0.02490868791937828
0.026670321822166443 0.019405288621783257 -0.009176884777843952 0.012331439182162285 -0.016441918909549713 0.008337036706507206 -0.003453281009569764 -0.01547233760356903
-0.008029774762690067 0.011894444935023785 -0.00043827478657476604 -0.021139610558748245 -0.016687728464603424 0.012427031993865967 -0.013212256133556366 0.0160185806453228
-0.01696084998548031 0.00028784453752450645 0.013888232409954071 -0.004376773256808519 0.0070397090166807175 -0.01824452169239521 -0.0047591435723006725 0.011682775802910328
-0.0071899257600307465 0.02037486992776394 -0.018572267144918442 -0.0034174337051808834 0.04282546415925026 0.013307848945260048 -0.01478953380137682 0.0412413589656353
0.022068222984671593 0.03883788734674454 -0.014666629023849964 -0.03321158513426781 0.016441918909549713 -0.01905023120343685 -0.0005014341440983117 -0.002205456839874387
0.010166950523853302 0.01345123816281557 0.008862795308232307 -0.0028541204519569874 0.022163815796375275 -0.02037486992776394 0.010931691154837608 0.010938519611954689
0.0040968237444758415 -0.022191127762198448 0.016919881105422974 -0.009695815853774548 0.007927353493869305 0.011204812675714493 0.006735860835760832 0.014980718493461609
00000000: 0000 0080 6d16 953f 0000 0060 c5bc 98bf
00000010: 0000 00a0 a3e9 853f 0000 00c0 0b45 63bf
00000020: 0000 0080 5575 84bf 0000 0040 2541 7b3f
00000030: 0000 0020 92d2 90bf 0000 00e0 07b9 9cbf
00000040: 0000 00c0 f7fc 8e3f 0000 00c0 c900 89bf
00000050: 0000 00e0 1b01 913f 0000 0060 6c7a 9b3f
00000060: 0000 00e0 177c 4ebf 0000 00e0 c9f9 64bf
00000070: 0000 0060 1cb9 7abf 0000 0080 82ce 8c3f
00000080: 0000 0080 fb8f a93f 0000 00c0 7b85 733f
00000090: 0000 0020 b251 a03f 0000 0040 653f 9abf
000000a0: 0000 00c0 21a0 98bf 0000 00a0 59c7 7cbf
000000b0: 0000 00a0 a988 8dbf 0000 0020 1090 97bf
000000c0: 0000 0020 094e a2bf 0000 00e0 011a 953f
000000d0: 0000 0020 494c 913f 0000 00e0 cb3f a0bf
000000e0: 0000 0060 6ec0 963f 0000 0060 3e7e a5bf
000000f0: 0000 00e0 32ff 933f 0000 00a0 2bcb 96bf
00000100: 0000 0040 5fa7 96bf 0000 0040 cfe7 76bf
00000110: 0000 0060 d7be a1bf 0000 00a0 9d51 623f
00000120: 0000 0000 08b2 98bf 0000 0060 c65f 86bf
00000130: 0000 00c0 3c2a 523f 0000 0000 3f2f 9bbf
00000140: 0000 0020 d90b 913f 0000 0060 7b9a 8f3f
00000150: 0000 0000 b1b5 963f 0000 00c0 5328 553f
00000160: 0000 0080 82ce 9cbf 0000 00e0 ae76 7fbf
00000170: 0000 00c0 2243 363f 0000 00c0 59c0 88bf
00000180: 0000 0040 e824 81bf 0000 00c0 cce9 71bf
00000190: 0000 0060 2bd9 6ebf 0000 0000 4af6 923f
000001a0: 0000 00a0 cb4d 88bf 0000 00c0 1041 7dbf
000001b0: 0000 0020 b00b 25bf 0000 00e0 32ff 633f
000001c0: 0000 0040 76a5 993f 0000 00e0 c361 913f
000001d0: 0000 0040 190a 903f 0000 0000 4175 86bf
000001e0: 0000 00c0 503f 7c3f 0000 00a0 ad0d 903f
000001f0: 0000 0000 d2d7 93bf 0000 0060 ccf7 393f
00000200: 0000 0060 ff1b 70bf 0000 0080 2bd2 8abf
00000210: 0000 0040 69cb 903f 0000 0040 9581 6b3f
00000220: 0000 0060 47ff 61bf 0000 00e0 c85d 7b3f
00000230: 0000 00c0 ebc5 833f 0000 0040 7f26 963f
00000240: 0000 00c0 cb46 843f 0000 0080 d578 663f
00000250: 0000 00e0 f200 953f 0000 0080 ce36 a1bf
00000260: 0000 00c0 a8de 8b3f 0000 00c0 c122 8a3f
00000270: 0000 0080 1cb2 763f 0000 0020 e1f0 73bf
00000280: 0000 0000 e1f7 973f 0000 0060 649c 5cbf
00000290: 0000 0000 c956 673f 0000 0080 2bd2 8a3f
000002a0: 0000 00c0 8b48 953f 0000 0080 a493 77bf
000002b0: 0000 00c0 da66 183f 0000 0080 bdd7 853f
000002c0: 0000 00a0 0d92 923f 0000 00e0 09ff 97bf
000002d0: 0000 0080 9573 23bf 0000 0000 1133 55bf
000002e0: 0000 0020 caf2 60bf 0000 0020 f8ee 963f
000002f0: 0000 00e0 a97a 85bf 0000 0020 08ab 743f
00000300: 0000 00e0 2a21 353f 0000 0040 08a4 a03f
00000310: 0000 00a0 45b2 92bf 0000 0000 6a75 92bf
00000320: 0000 0040 38e6 713f 0000 0040 31ab a03f
00000330: 0000 0000 29d4 95bf 0000 00e0 d1de 87bf
00000340: 0000 0040 c8a5 91bf 0000 0060 441d 9dbf
00000350: 0000 00c0 3ae4 76bf 0000 0060 f73d 81bf
00000360: 0000 00c0 5285 773f 0000 0020 682f 97bf
00000370: 0000 00a0 2a28 99bf 0000 0060 ed19 973f
00000380: 0000 0060 7dd9 763f 0000 0040 7502 9cbf
00000390: 0000 0040 2ec2 97bf 0000 0060 f73d 71bf
000003a0: 0000 00c0 e0fe 8b3f 0000 0020 a1eb 803f
000003b0: 0000 00a0 d571 72bf 0000 0000 c710 9cbf
000003c0: 0000 0060 dcba 8b3f 0000 0020 29cd 513f
000003d0: 0000 0000 00d4 a93f 0000 0000 866f 7f3f
000003e0: 0000 0080 d614 903f 0000 0000 fa34 623f
000003f0: 0000 0080 5618 92bf 0000 00c0 2489 81bf
00000400: 0000 00e0 2a21 85bf 0000 0080 2533 833f
00000410: 0000 0060 3e7e 953f 0000 00e0 ef17 9c3f
00000420: 0000 00e0 5038 983f 0000 0080 4373 7bbf
00000430: 0000 0040 76a5 99bf 0000 0080 c36f 993f
00000440: 0000 0040 9581 7bbf 0000 0020 204c 853f
00000450: 0000 00e0 527e a3bf 0000 0000 4175 96bf
00000460: 0000 0060 0fdf 81bf 0000 00c0 7b85 933f
00000470: 0000 00e0 931f a0bf 0000 00c0 fae5 97bf
00000480: 0000 00a0 5a6a 8abf 0000 0020 798e 923f
00000490: 0000 0000 f8f5 8a3f 0000 0040 f8e7 923f
000004a0: 0000 00c0 d77d 7f3f 0000 0060 0fdf 91bf
000004b0: 0000 00a0 02cb 8a3f 0000 0060 4fdd 70bf
000004c0: 0000 0060 c419 9b3f 0000 0080 2251 7e3f
000004d0: 0000 0080 26d6 50bf 0000 0080 9cb5 983f
000004e0: 0000 00e0 c078 483f 0000 0020 9d66 8e3f
000004f0: 0000 0040 38e6 91bf 0000 00c0 ac6a 723f
00000500: 0000 00a0 0aa9 89bf 0000 0080 cd93 933f
00000510: 0000 00e0 87bc 8e3f 0000 0020 d629 6cbf
00000520: 0000 00e0 f93b 76bf 0000 00c0 9326 a43f
00000530: 0000 0080 85b7 55bf 0000 0000 57d0 6b3f
00000540: 0000 0040 14e2 8fbf 0000 0080 7451 36bf
00000550: 0000 0040 31ab 40bf 0000 00e0 9778 9c3f
00000560: 0000 0020 066c 9dbf 0000 00a0 b209 9a3f
00000570: 0000 00e0 5eb5 4ebf 0000 0000 6a75 a23f
00000580: 0000 0080 ad14 943f 0000 0060 87fd 30bf
00000590: 0000 00a0 e986 9cbf 0000 0040 7f26 96bf
000005a0: 0000 0020 f1ac 81bf 0000 00e0 c7ba 9d3f
000005b0: 0000 00a0 db09 963f 0000 00c0 a246 983f
000005c0: 0000 0040 08a4 90bf 0000 00c0 3c2a 823f
000005d0: 0000 0040 de00 973f 0000 0060 db17 7ebf
000005e0: 0000 00e0 b7f7 8b3f 0000 00c0 8406 90bf
000005f0: 0000 0080 fe78 923f 0000 0060 f002 903f
00000600: 0000 0080 6c73 67bf 0000 00e0 7adb 813f
00000610: 0000 00c0 42c2 e5bf 0000 0040 14e2 8fbf
00000620: 0000 00e0 5a5c 923f 0000 0060 cfe0 42bf
00000630: 0000 0000 7a38 843f 0000 00c0 a981 993f
00000640: 0000 0000 774f 9b3f 0000 00e0 fade 933f
00000650: 0000 00a0 54cb 82bf 0000 00c0 3941 893f
00000660: 0000 0080 26d6 90bf 0000 0020 0213 813f
00000670: 0000 0020 0e4a 6cbf 0000 0000 f6af 8fbf
00000680: 0000 0020 ea71 80bf 0000 0060 1d5c 883f
00000690: 0000 00e0 07b9 3cbf 0000 0040 9fa5 95bf
000006a0: 0000 0080 9616 91bf 0000 0000 5873 893f
000006b0: 0000 0000 070f 8bbf 0000 00c0 2c67 903f
000006c0: 0000 0060 2f5e 91bf 0000 00e0 3add 323f
000006d0: 0000 0000 6f71 8c3f 0000 0020 61ed 71bf
000006e0: 0000 0080 abd5 7c3f 0000 0020 b1ae 92bf
000006f0: 0000 00e0 527e 73bf 0000 00a0 23ed 873f
00000700: 0000 0000 2f73 7dbf 0000 0060 26dd 943f
00000710: 0000 00c0 9b04 93bf 0000 00c0 e0fe 6bbf
00000720: 0000 0020 38ed a53f 0000 0040 2541 8b3f
00000730: 0000 00a0 f949 8ebf 0000 0060 961d a53f
00000740: 0000 0060 0d99 963f 0000 0040 8fe2 a33f
00000750: 0000 00a0 8909 8ebf 0000 00e0 1b01 a1bf
00000760: 0000 0080 26d6 903f 0000 0060 e781 93bf
00000770: 0000 00a0 556e 40bf 0000 00a0 2d11 62bf
00000780: 0000 0000 69d2 843f 0000 00a0 528c 8b3f
00000790: 0000 0040 a826 823f 0000 0040 8661 67bf
000007a0: 0000 0080 1cb2 963f 0000 0060 26dd 94bf
000007b0: 0000 00c0 5a63 863f 0000 0040 ef66 863f
000007c0: 0000 00c0 d4c7 703f 0000 0060 45b9 96bf
000007d0: 0000 0000 7253 913f 0000 0060 66db 83bf
000007e0: 0000 0060 373c 803f 0000 0080 8cf2 863f
000007f0: 0000 00e0 0f97 7b3f 0000 0000 36ae 8e3f
